…
omentum=0.1, affine=True, track_running_stats=True)", "parameters": [["weight", [64]], ["bias", [64]]], "output_shape": [[32, 64, 251]], "num_parameters": [64, 64]}, {"name": "relu", "id": 2554856877168, "class_name": "ReLU(inplace=True)", "parameters": [], "output_shape": [[32, 64, 251]], "num_parameters": []}, {"name": "maxpool", "id": 2554856876304, "class_name": "MaxPool1d(kernel_size=3, stride=2, padding=1, dilation=1, ceil_mode=False)", "parameters": [], "output_shape": [[32, 64, 126]], "num_parameters": []}, {"name": "layer1.0", "id": 2554856876160, "class_name": "ResNetBlock(\n  (conv1): Conv1d(64, 64, kernel_size=(3,), stride=(1,), padding=(1,), bias=False)\n  (bn1): BatchNorm1d(64, eps=1e-05, momentum=0.1, affine=True, track_running_stats=True)\n  (relu): ReLU(inplace=True)\n  (conv2): Conv1d(64, 64, kernel_size=(3,), stride=(1,), padding=(1,), bias=False)\n  (bn2): BatchNorm1d(64, eps=1e-05, momentum=0.1, affine=True, track_running_stats=True)\n)", "parameters": [["conv1.weight", [64, 64, 3]], ["bn1.weight", [64]], ["bn1.bias", [64]], ["conv2.weight", [64, 64, 3]], ["bn2.weight", [64]], ["bn2.bias", [64]]], "output_shape": [[32, 64, 126]], "num_parameters": [12288, 64, 64, 12288, 64, 64]}, {"name": "layer1.1", "id": 2554856877360, "class_name": "ResNetBlock(\n  (conv1): Conv1d(64, 64, kernel_size=(3,), stride=(1,), padding=(1,), bias=False)\n  (bn1): BatchNorm1d(64, eps=1e-05, momentum=0.1, affine=True, track_running_stats=True)\n  (relu): ReLU(inplace=True)\n  (conv2): Conv1d(64, 64, kernel_size=(3,), stride=(1,), padding=(1,), bias=False)\n  (bn2): BatchNorm1d(64, eps=1e-05, momentum=0.1, affine=True, track_running_stats=True)\n)", "parameters": [["conv1.weight", [64, 64, 3]], ["bn1.weight", [64]], ["bn1.bias", [64]], ["conv2.weight", [64, 64, 3]], ["bn2.weight", [64]], ["bn2.bias", [64]]], "output_shape": [[32, 64, 126]], "num_parameters": [12288, 64, 64, 12288, 64, 64]}, {"name": "layer2.0", "id": 2553358057920, "class_name": "ResNetBlock(\n  (conv1): Conv1d(64, 128, kernel_size=(3,), stride=(2,), padding=(1,), bias=False)\n  (bn1): BatchNorm1d(128, eps=1e-05, momentum=0.1, affine=True, track_running_stats=True)\n  (relu): ReLU(inplace=True)\n  (conv2): Conv1d(128, 128, kernel_size=(3,), stride=(1,), padding=(1,), bias=False)\n  (bn2): BatchNorm1d(128, eps=1e-05, momentum=0.1, affine=True, track_running_stats=True)\n  (downsample): Sequential(\n    (0): Conv1d(64, 128, kernel_size=(1,), stride=(2,), bias=False)\n    (1): BatchNorm1d(128, eps=1e-05, momentum=0.1, affine=True, track_running_stats=True)\n  )\n)", "parameters": [["conv1.weight", [128, 64, 3]], ["bn1.weight", [128]], ["bn1.bias", [128]], ["conv2.weight", [128, 128, 3]], ["bn2.weight", [128]], ["bn2.bias", [128]], ["downsample.0.weight", [128, 64, 1]], ["downsample.1.weight", [128]], ["downsample.1.bias", [128]]], "output_shape": [[32, 128, 63]], "num_parameters": [24576, 128, 128, 49152, 128, 128, 8192, 128, 128]}, {"name": "layer2.1", "id": 2553358058688, "class_name": "ResNetBlock(\n  (conv1): Conv1d(128, 128, kernel_size=(3,), stride=(1,), padding=(1,), bias=False)\n  (bn1): BatchNorm1d(128, eps=1e-05, momentum=0.1, affine=True, track_running_stats=True)\n  (relu): ReLU(inplace=True)\n  (conv2): Conv1d(128, 128, kernel_size=(3,), stride=(1,), padding=(1,), bias=False)\n  (bn2): BatchNorm1d(128, eps=1e-05, momentum=0.1, affine=True, track_running_stats=True)\n)", "parameters": [["conv1.weight", [128, 128, 3]], ["bn1.weight", [128]], ["bn1.bias", [128]], ["conv2.weight", [128, 128, 3]], ["bn2.weight", [128]], ["bn2.bias", [128]]], "output_shape": [[32, 128, 63]], "num_parameters": [49152, 128, 128, 49152, 128, 128]}, {"name": "layer3.0", "id": 2553358059888, "class_name": "ResNetBlock(\n  (conv1): Conv1d(128, 256, kernel_size=(3,), stride=(2,), padding=(1,), bias=False)\n  (bn1): BatchNorm1d(256, eps=1e-05, momentum=0.1, affine=True, track_running_stats=True)\n  (relu): ReLU(inplace=True)\n  (conv2): Conv1d(256, 256, kernel_size=(3,), stride=(1,), padding=(1,), bias=False)\n  (bn2): BatchNorm1d(256, eps=1e-05, momentum=0.1, affine=True, track_running_stats=True)\n  (downsample): Sequential(\n    (0): Conv1d(128, 256, kernel_size=(1,), stride=(2,), bias=False)\n    (1): BatchNorm1d(256, eps=1e-05, momentum=0.1, affine=True, track_running_stats=True)\n  )\n)", "parameters": [["conv1.weight", [256, 128, 3]], ["bn1.weight", [256]], ["bn1.bias", [256]], ["conv2.weight", [256, 256, 3]], ["bn2.weight", [256]], ["bn2.bias", [256]], ["downsample.0.weight", [256, 128, 1]], ["downsample.1.weight", [256]], ["downsample.1.bias", [256]]], "output_shape": [[32, 256, 32]], "num_parameters": [98304, 256, 256, 196608, 256, 256, 32768, 256, 256]}, {"name": "layer3.1", "id": 2553358060656, "class_name": "ResNetBlock(\n  (conv1): Conv1d(256, 256, kernel_size=(3,), stride=(1,), padding=(1,), bias=False)\n  (bn1): BatchNorm1d(256, eps=1e-05, momentum=0.1, affine=True, track_running_stats=True)\n  (relu): ReLU(inplace=True)\n  (conv2): Conv1d(256, 256, kernel_size=(3,), stride=(1,), padding=(1,), bias=False)\n  (bn2): BatchNorm1d(256, eps=1e-05, momentum=0.1, affine=True, track_running_stats=True)\n)", "parameters": [["conv1.weight", [256, 256, 3]], ["bn1.weight", [256]], ["bn1.bias", [256]], ["conv2.weight", [256, 256, 3]], ["bn2.weight", [256]], ["bn2.bias", [256]]], "output_shape": [[32, 256, 32]], "num_parameters": [196608, 256, 256, 196608, 256, 256]}, {"name": "layer4.0", "id": 2553358225760, "class_name": "ResNetBlock(\n  (conv1): Conv1d(256, 512, kernel_size=(3,), stride=(2,), padding=(1,), bias=False)\n  (bn1): BatchNorm1d(512, eps=1e-05, momentum=0.1, affine=True, track_running_stats=True)\n  (relu): ReLU(inplace=True)\n  (conv2): Conv1d(512, 512, kernel_size=(3,), stride=(1,), padding=(1,), bias=False)\n  (bn2): BatchNorm1d(512, eps=1e-05, momentum=0.1, affine=True, track_running_stats=True)\n  (downsample): Sequential(\n    (0): Conv1d(256, 512, kernel_size=(1,), stride=(2,), bias=False)\n    (1): BatchNorm1d(512, eps=1e-05, momentum=0.1, affine=True, track_running_stats=True)\n  )\n)", "parameters": [["conv1.weight", [512, 256, 3]], ["bn1.weight", [512]], ["bn1.bias", [512]], ["conv2.weight", [512, 512, 3]], ["bn2.weight", [512]], ["bn2.bias", [512]], ["downsample.0.weight", [512, 256, 1]], ["downsample.1.weight", [512]], ["downsample.1.bias", [512]]], "output_shape": [[32, 512, 16]], "num_parameters": [393216, 512, 512, 786432, 512, 512, 131072, 512, 512]}, {"name": "layer4.1", "id": 2553358226528, "class_name": "ResNetBlock(\n  (conv1): Conv1d(512, 512, kernel_size=(3,), stride=(1,), padding=(1,), bias=False)\n  (bn1): BatchNorm1d(512, eps=1e-05, momentum=0.1, affine=True, track_running_stats=True)\n  (relu): ReLU(inplace=True)\n  (conv2): Conv1d(512, 512, kernel_size=(3,), stride=(1,), padding=(1,), bias=False)\n  (bn2): BatchNorm1d(512, eps=1e-05, momentum=0.1, affine=True, track_running_stats=True)\n)", "parameters": [["conv1.weight", [512, 512, 3]], ["bn1.weight", [512]], ["bn1.bias", [512]], ["conv2.weight", [512, 512, 3]], ["bn2.weight", [512]], ["bn2.bias", [512]]], "output_shape": [[32, 512, 16]], "num_parameters": [786432, 512, 512, 786432, 512, 512]}, {"name": "avgpool", "id": 2553358227344, "class_name": "AdaptiveAv
…
